…
I noticed that it will miss some object in some frame, if we lower the threshold which resulting more object been detected, at the same time create a heat map based on history data. For example a Car has been detected in last 3 frame, we have very high confidence that it will appear in frame 4 and 5, however if still not detected in frame 6, we can remove it away from our list.

References
Stanford CS class CS231n: Convolutional Neural Networks
Paper You Only Look Once: Unified, Real-Time Object Detection
Model Summary
____________________________________________________________________________________________________
Layer (type)                     Output Shape          Param #     Connected to                     
====================================================================================================
input_1 (InputLayer)             (None, 416, 416, 3)   0                                            
____________________________________________________________________________________________________
convolution2d_1 (Convolution2D)  (None, 416, 416, 32)  864         input_1[0][0]                    
____________________________________________________________________________________________________
batchnormalization_1 (BatchNorma (None, 416, 416, 32)  128         convolution2d_1[0][0]            
____________________________________________________________________________________________________
leakyrelu_1 (LeakyReLU)          (None, 416, 416, 32)  0           batchnormalization_1[0][0]       
____________________________________________________________________________________________________
maxpooling2d_1 (MaxPooling2D)    (None, 208, 208, 32)  0           leakyrelu_1[0][0]                
____________________________________________________________________________________________________
convolution2d_2 (Convolution2D)  (None, 208, 208, 64)  18432       maxpooling2d_1[0][0]             
____________________________________________________________________________________________________
batchnormalization_2 (BatchNorma (None, 208, 208, 64)  256         convolution2d_2[0][0]            
____________________________________________________________________________________________________
leakyrelu_2 (LeakyReLU)          (None, 208, 208, 64)  0           batchnormalization_2[0][0]       
____________________________________________________________________________________________________
maxpooling2d_2 (MaxPooling2D)    (None, 104, 104, 64)  0           leakyrelu_2[0][0]                
____________________________________________________________________________________________________
convolution2d_3 (Convolution2D)  (None, 104, 104, 128) 73728       maxpooling2d_2[0][0]             
____________________________________________________________________________________________________
batchnormalization_3 (BatchNorma (None, 104, 104, 128) 512         convolution2d_3[0][0]            
____________________________________________________________________________________________________
leakyrelu_3 (LeakyReLU)          (None, 104, 104, 128) 0           batchnormalization_3[0][0]       
____________________________________________________________________________________________________
convolution2d_4 (Convolution2D)  (None, 104, 104, 64)  8192        leakyrelu_3[0][0]                
____________________________________________________________________________________________________
batchnormalization_4 (BatchNorma (None, 104, 104, 64)  256         convolution2d_4[0][0]            
____________________________________________________________________________________________________
leakyrelu_4 (LeakyReLU)          (None, 104, 104, 64)  0           batchnormalization_4[0][0]       
____________________________________________________________________________________________________
convolution2d_5 (Convolution2D)  (None, 104, 104, 128) 73728       leakyrelu_4[0][0]                
____________________________________________________________________________________________________
batchnormalization_5 (BatchNorma (None, 104, 104, 128) 512         convolution2d_5[0][0]            
____________________________________________________________________________________________________
leakyrelu_5 (LeakyReLU)          (None, 104, 104, 128) 0           batchnormalization_5[0][0]       
____________________________________________________________________________________________________
maxpooling2d_3 (MaxPooling2D)    (None, 52, 52, 128)   0           leakyrelu_5[0][0]                
____________________________________________________________________________________________________
convolution2d_6 (Convolution2D)  (None, 52, 52, 256)   294912      maxpooling2d_3[0][0]             
____________________________________________________________________________________________________
batchnormalization_6 (BatchNorma (None, 52, 52, 256)   1024        convolution2d_6[0][0]            
____________________________________________________________________________________________________
leakyrelu_6 (LeakyReLU)          (None, 52, 52, 256)   0           batchnormalization_6[0][0]       
____________________________________________________________________________________________________
convolution2d_7 (Convolution2D)  (None, 52, 52, 128)   32768       leakyrelu_6[0][0]                
____________________________________________________________________________________________________
batchnormalization_7 (BatchNorma (None, 52, 52, 128)   512         convolution2d_7[0][0]            
____________________________________________________________________________________________________
leakyrelu_7 (LeakyReLU)          (None, 52, 52, 128)   0           batchnormalization_7[0][0]       
____________________________________________________________________________________________________
convolution2d_8 (Convolution2D)  (None, 52, 52, 256)   294912      leakyrelu_7[0][0]                
____________________________________________________________________________________________________
batchnormalization_8 (BatchNorma (None, 52, 52, 256)   1024        convolution2d_8[0][0]            
____________________________________________________________________________________________________
leakyrelu_8 (LeakyReLU)          (None, 52, 52, 256)   0           batchnormalization_8[0][0]       
____________________________________________________________________________________________________
maxpooling2d_4 (MaxPooling2D)    (None, 26, 26, 256)   0           leakyrelu_8[0][0]                
____________________________________________________________________________________________________
convolution2d_9 (Convolution2D)  (None, 26, 26, 512)   1179648     maxpooling2d_4[0][0]             
____________________________________________________________________________________________________
batchnormalization_9 (BatchNorma (None, 26, 26, 512)   2048        convolution2d_9[0][0]            
____________________________________________________________________________________________________
leakyrelu_9 (LeakyReLU)          (None, 26, 26, 512)   0           batchnormalization_9[0][0]       
____________________________________________________________________________________________________
convolution2d_10 (Convolution2D) (None, 26, 26, 256)   131072      leakyrelu_9[0][0]                
____________________________________________________________________________________________________
batchnormalization_10 (BatchNorm (None, 26, 26, 256)   1024        convolution2d_10[0][0]           
____________________________________________________________________________________________________
leakyrelu_10 (LeakyReLU)         (None, 26, 26, 256)   0           batchnormalization_10[0][0]      
____________________________________________________________________________________________________
convolution2d_11 (Convolution2D) (None, 26, 26, 512)   1179648     leakyrelu_10[0][0]               
____________________________________________________________________________________________________
batchnormalization_11 (BatchNorm (None, 26, 26, 512)   2048        convolution2d_11[0][0]           
____________________________________________________________________________________________________
leakyrelu_11 (LeakyReLU)         (None, 26, 26, 512)   0           batchnormalization_11[0][0]      
____________________________________________________________________________________________________
convolution2d_12 (Convolution2D) (None, 26, 26, 256)   131072      leakyrelu_11[0][0]               
____________________________________________________________________________________________________
batchnormalization_12 (BatchNorm (None, 26, 26, 256)   1024        convolution2d_12[0][0]           
____________________________________________________________________________________________________
leakyrelu_12 (LeakyReLU)         (None, 26, 26, 256)   0           batchnormalization_12[0][0]      
____________________________________________________________________________________________________
convolution2d_13 (Convolution2D) (None, 26, 26, 512)   1179648     leakyrelu_12[0][0]               
____________________________________________________________________________________________________
batchnormalization_13 (BatchNorm (None, 26, 26, 512)   2048        convolution2d_13[0][0]           
____________________________________________________________________________________________________
leakyrelu_13 (LeakyReLU)         (None, 26, 26, 512)   0           batchnormalization_13[0][0]      
____________________________________________________________________________________________________
maxpooling2d_5 (MaxPooling2D)    (None, 13, 13, 512)   0           leakyrelu_13[0][0]               
____________________________________________________________________________________________________
convolution2d_14 (Convolution2D) (None, 13, 13, 1024)  4718592     maxpooling2d_5[0][0]             
____________________________________________________________________________________________________
batchnormalization_14 (BatchNorm (None, 13, 13, 1024)  4096        convolution2d_14[0][0]           
____________________________________________________________________________________________________
leakyrelu_14 (LeakyReLU)         (None, 13, 13, 1024)  0           batchnormalization_14[0][0]      
____________________________________________________________________________________________________
convolution2d_15 (Convolution2D) (None, 13, 13, 512)   524288      leakyrelu_14[0][0]               
____________________________________________________________________________________________________
batchnormalization_15 (BatchNorm (None, 13, 13, 512)   2048        convolution2d_15[0][0]           
____________________________________________________________________________________________________
leakyrelu_15 (LeakyReLU)         (None, 13, 13, 512)   0           batchnormalization_15[0][0]      
____________________________________________________________________________________________________
convolution2d_16 (Convolution2D) (None, 13, 13, 1024)  4718592     leakyrelu_15[0][0]               
____________________________________________________________________________________________________
batchnormalization_16 (BatchNorm (None, 13, 13, 1024)  4096        convolution2d_16[0][0]           
____________________________________________________________________________________________________
leakyrelu_16 (LeakyReLU)         (None, 13, 13, 1024)  0           batchnormalization_16[0][0]      
____________________________________________________________________________________________________
convolution2d_17 (Convolution2D) (None, 13, 13, 512)   524288      leakyrelu_16[0][0]               
____________________________________________________________________________________________________
batchnormalization_17 (BatchNorm (None, 13, 13, 512)   2048        convolution2d_17[0][0]           
____________________________________________________________________________________________________
leakyrelu_17 (LeakyReLU)         (None, 13, 13, 512)   0           batchnormalization_17[0][0]      
____________________________________________________________________________________________________
convolution2d_18 (Convolution2D) (None, 13, 13, 1024)  4718592     leakyrelu_17[0][0]               
____________________________________________________________________________________________________
batchnormalization_18 (BatchNorm (None, 13, 13, 1024)  4096        convolution2d_18[0][0]           
____________________________________________________________________________________________________
leakyrelu_18 (LeakyReLU)         (None, 13, 13, 1024)  0           batchnormalization_18[0][0]      
____________________________________________________________________________________________________
convolution2d_19 (Convolution2D) (None, 13, 13, 1024)  9437184     leakyrelu_18[0][0]               
____________________________________________________________________________________________________
batchnormalization_19 (BatchNorm (None, 13, 13, 1024)  4096        convolution2d_19[0][0]           
____________________________________________________________________________________________________
leakyrelu_19 (LeakyReLU)         (None, 13, 13, 1024)  0           batchnormalization_19[0][0]      
____________________________________________________________________________________________________
convolution2d_20 (Convolution2D) (None, 13, 13, 1024)  9437184     leakyrelu_19[0][0]               
____________________________________________________________________________________________________
batchnormalization_20 (BatchNorm (None, 13, 13, 1024)  4096        convolution2d_20[0][0]           
____________________________________________________________________________________________________
space_to_depth_x2 (Lambda)       (None, 13, 13, 2048)  0           leakyrelu_13[0][0]               
____________________________________________________________________________________________________
leakyrelu_20 (LeakyReLU)         (None, 13, 13, 1024)  0           batchnormalization_20[0][0]      
____________________________________________________________________________________________________
merge_1 (Merge)                  (None, 13, 13, 3072)  0           space_to_depth_x2[0][0]          
                                                                   leakyrelu_20[0][0]               
____________________________________________________________________________________________________
convolution2d_21 (Convolution2D) (None, 13, 13, 1024)  28311552    merge_1[0][0]                    
____________________________________________________________________________________________________
batchnormalization_21 (BatchNorm (None, 13, 13, 1024)  4096        convolution2d_21[0][0]           
____________________________________________________________________________________________________
leakyrelu_21 (LeakyReLU)         (None, 13, 13, 1024)  0           batchnormalization_21[0][0]      
____________________________________________________________________________________________________
convolution2d_22 (Convolution2D) (None, 13, 13, 425)   435625      leakyrelu_21[0][0]               
====================================================================================================
Total params: 67,465,609
Trainable params: 67,445,065
Non-trainable params: 20,544
____________________________________________________________________________________________________


















